src/train/NNmodel.pt (torch_old, 7837 bytes, 10 tensors)

net.0.weight f4 [20, 6]
0	0xbe83e246	-0.2575857
1	0x3e99315d	0.29920474
2	0x3ed029af	0.40656802
3	0x3d403ee8	0.046934992
4	0xbec1b0d8	-0.37830234
5	0x3e1ff876	0.15622124
6	0x3ec9c788	0.39410043
7	0xbe70a94d	-0.23502083
8	0x3ed9546b	0.42447218
9	0xbd6e7e2f	-0.058225807
10	0xbdd43f5d	-0.10363648
11	0xbebc917b	-0.36829743
12	0x3edf1e69	0.4357789
13	0xbe9378c2	-0.28803068
14	0x3e05145f	0.12996052
15	0xbe381f9d	-0.1798081
16	0xbeb561cb	-0.35426173
17	0x3c803b91	0.015653403
18	0x3e76ea0d	0.24112721
19	0xbe1baf5b	-0.15203612
20	0x3e8c4f1e	0.27404112
21	0x3e89fea5	0.2695209
22	0xbddf07ab	-0.108901344
23	0x3ec0ac8b	0.3763164
24	0xbe010a9b	-0.12601702
25	0x3d922db9	0.07137627
26	0xbe59d89f	-0.2127404
27	0xbee6813a	-0.45020467
28	0xbeb699b4	-0.3566414
29	0x3d7637b1	0.060111705
30	0xbd023d57	-0.03179678
31	0x3ec8038b	0.39065203
32	0xbea4da49	-0.32197788
33	0x3dcc4ca6	0.09975557
34	0x3ee2ded9	0.44310644
35	0x3dd13e6d	0.10216985
36	0x3e8ba34a	0.27273017
37	0x3e9cccbf	0.3062496
38	0xbee168b7	-0.44025204
39	0xbeaffca1	-0.34372428
40	0xbeab4d36	-0.33457345
41	0xbdeda3e3	-0.116035245
42	0x3dc68f35	0.09695283
43	0x3e867243	0.2625905
44	0xbe76a2ec	-0.24085587
45	0xbe0b2273	-0.1358736
46	0x3e5fd075	0.21856864
47	0x3e5511e4	0.20807606
48	0x3e1bc332	0.1521118
49	0x3ed2e333	0.41188964
50	0x3e76477a	0.24050704
51	0x3debd6a8	0.11515552
52	0x3b8d2109	0.0043069166
53	0x3e8a0906	0.2696001
54	0x3e173c7d	0.14769168
55	0xbe86c3e5	-0.2632133
56	0x3e595a68	0.21225893
57	0x3ea773cf	0.32705542
58	0x3d5130fe	0.051072113
59	0x3e11020f	0.14160942
60	0xbe904599	-0.281781
61	0x3e5a0d66	0.21294174
62	0xbe105a7f	-0.14097022
63	0x3eda56f1	0.42644456
64	0x3eabdcca	0.33566886
65	0xbed4e3e5	-0.4158012
66	0xbe27134f	-0.1631596
67	0xbdbd8e8e	-0.09255706
68	0xbd9ea04f	-0.0774542
69	0x3ea3a5e6	0.31962508
70	0x3e8edd3d	0.27903166
71	0xbe8aee96	-0.27135152
72	0x3ea7f1ec	0.3280176
73	0x3ee01caa	0.4377187
74	0x3ea01359	0.3126476
75	0xbcaf6f7c	-0.021415465
76	0xbe63e314	-0.22254592
77	0xbef72129	-0.48267487
78	0x3e1b6f41	0.15179159
79	0xbf03956e	-0.51399887
80	0xbea92c48	-0.33041596
81	0xbe00db53	-0.12583666
82	0x3eebdf38	0.4606874
83	0xbc9a0b3f	-0.01880419
84	0x3e72b14e	0.23700449
85	0xbe00671d	-0.12539335
86	0xbeace85b	-0.33771023
87	0x3ea982cf	0.33107612
88	0xbec44337	-0.3833253
89	0x3d1b1993	0.037866186
90	0xbe00ae94	-0.12566596
91	0xbe54617d	-0.20740314
92	0x3e81b6f6	0.253349
93	0xbeca2874	-0.39483988
94	0xbe8f5b82	-0.27999502
95	0xbecdf6dd	-0.40227404
96	0xbd1de4c9	-0.038548265
97	0xbe356a73	-0.17716388
98	0x3c26bec9	0.010177323
99	0xbe6d1b7e	-0.23155019
100	0x3f0532e0	0.52030754
101	0xbec775e6	-0.38957137
102	0x3bfc5730	0.0077008232
103	0xbea16b17	-0.31527016
104	0xbe0c98a6	-0.13730106
105	0x3edb2bb3	0.42806777
106	0xbc418861	-0.0118123
107	0x3e6d99eb	0.23203246
108	0xbebd6d34	-0.36997378
109	0xbe84ffdf	-0.25976464
110	0x3ee75405	0.4518129
111	0xbe9172d7	-0.28407928
112	0xbef8e08d	-0.4860882
113	0x3eb1998e	0.34687465
114	0x3dcd0f08	0.100126326
115	0x3e70ca13	0.23514585
116	0x3e3db12d	0.18524618
117	0xbee3b8ec	-0.44477022
118	0x3e994f54	0.29943335
119	0x3dd9a980	0.10628033

net.0.bias f4 [20]
0	0x3eeb6457	0.4597499
1	0x3ead0e53	0.3379999
2	0x3e89b77f	0.2689781
3	0xbec11c20	-0.3771677
4	0xbd1445df	-0.036199447
5	0x3e7de977	0.24796091
6	0x3d461a02	0.048364647
7	0xbd99ecf3	-0.075158976
8	0xbdbaf8cd	-0.09129486
9	0x3d9c26f9	0.07624621
10	0xbeb23c93	-0.3481184
11	0x3ecb9757	0.397639
12	0x3da7bea7	0.08190661
13	0xbe522a3b	-0.20523922
14	0x3de7cc87	0.11318307
15	0xbe2fc41a	-0.1716465
16	0x3d20d9cd	0.03927021
17	0x3e9c84e3	0.30570135
18	0x3e66123f	0.22467898
19	0x3e6364b0	0.22206378

net.2.weight f4 [20, 20]
0	0xbe136fd8	-0.14398134
1	0xbe59fe4a	-0.2128841
2	0xbe0dc19c	-0.13843387
3	0xbce03d80	-0.027373075
4	0xbd7f745e	-0.062366836
5	0x3d2f25bb	0.042760592
6	0xbe209840	-0.15683079
7	0x3d825e46	0.063656375
8	0xbccc0aba	-0.024907459
9	0xbe92c903	-0.28668985
10	0x3e444446	0.19166669
11	0x3d3a2542	0.045445688
12	0x3e8d87dd	0.27642718
13	0xbe8721f0	-0.2639308
14	0x3c9b8d55	0.01898829
15	0xbde319a7	-0.11088877
16	0xbdd96a81	-0.10616017
17	0xbe9fe9d5	-0.31233087
18	0xbd337735	-0.043814857
19	0x3d104f04	0.035231605
20	0xbdff79e4	-0.12474421
21	0xbd4630f1	-0.048386518
22	0xbdf117d8	-0.11772126
23	0xbd90e44f	-0.070747964
24	0x3e60d9a5	0.21958025
25	0x3d7f5199	0.062333677
26	0xbdca0a36	-0.09865229
27	0xbd2469e6	-0.040140055
28	0xbe7e5150	-0.24835706
29	0x3c72ed36	0.014827063
30	0x3dec2323	0.11530139
31	0xbe665622	-0.22493795
32	0xbeb24428	-0.34817624
33	0xbdfe1723	-0.12406757
34	0xbde8e602	-0.113719955
35	0xbd689802	-0.05678559
36	0xbe075294	-0.13215095
37	0xbe93b22c	-0.28846872
38	0x3c4ed789	0.01262463
39	0x3e063270	0.13105178
40	0xbb972db2	-0.0046136016
41	0x3e1c981a	0.15292397
42	0x3e37f900	0.1796608
43	0xbdce3381	-0.10068417
44	0x3e3eba96	0.18625864
45	0xbc34a62c	-0.011025947
46	0x3e7b2f94	0.24529868
47	0x3cd0aae8	0.02547212
48	0x3d270cb7	0.04078361
49	0xbd6e1dd7	-0.058133926
50	0xbd9fea23	-0.0780833
51	0xbb85ac0e	-0.0040793484
52	0x3e9341ef	0.2876124
53	0x3d92eb0c	0.07173738
54	0x3e0666a5	0.13125093
55	0x3d6a1207	0.0571461
56	0x3c424671	0.011857615
57	0x3cc5a68f	0.024127273
58	0x3cc56b43	0.024098998
59	0xbe7e2b55	-0.24821217
60	0x3da97126	0.082735345
61	0xbe4ba0ef	-0.1988561
62	0xbdea1535	-0.11429826
63	0x3e4ba455	0.19886906
64	0x3e1f1d98	0.15538633
65	0xbdb04806	-0.086074874
66	0xbca6a5f3	-0.020342803
67	0x3d58c278	0.052919835
68	0x3d35040f	0.044193324
69	0x3e10484a	0.14090076
70	0xbe04c362	-0.12965158
71	0xbdd1ece2	-0.1025026
72	0x3e2eb011	0.17059352
73	0xbe6e7bd9	-0.23289432
74	0x3e056037	0.13024984
75	0x3e0e0897	0.13870464
76	0x3c2e296f	0.010629996
77	0x3c9d2601	0.01918316
78	0x3e7e0077	0.24804865
79	0x3d2b1cf3	0.041775655
80	0x3db35b46	0.087576434
81	0xbdf48c2c	-0.11940798
82	0x3dd84435	0.105598845
83	0xbd0e2b3b	-0.034709197
84	0xbde6907c	-0.11258027
85	0x3e021551	0.12703444
86	0x3e1906fe	0.14944074
87	0x3dfa2130	0.12213361
88	0x3d036e91	0.032087866
89	0x3e0ca50b	0.13734834
90	0x3e188ae2	0.1489673
91	0xbcfcac14	-0.030843772
92	0xbe0228be	-0.12710854
93	0xbd474790	-0.04865223
94	0x3df3eabd	0.11910007
95	0xbe0351da	-0.12824193
96	0xbe75d579	-0.24007215
97	0x3e6dcab8	0.23221862
98	0x3dd26668	0.10273439
99	0xbe6318c0	-0.2217741
100	0xbe738d04	-0.23784262
101	0x3dac8b78	0.08425039
102	0x3d537324	0.05162348
103	0x3e823773	0.2543293
104	0x3deefb2f	0.11669003
105	0xbd61dc44	-0.055141702
106	0xbe9d7569	-0.3075364
107	0x3d8c98de	0.068650946
108	0x3dc4df94	0.09612957
109	0x3dd5c3e4	0.10437754
110	0xbe622904	-0.22085959
111	0xbe5e165f	-0.21688221
112	0xbe64afc5	-0.22332676
113	0x3dd50ad7	0.10402458
114	0x3e0a8256	0.13526282
115	0x3da9f818	0.08299273
116	0xbe127431	-0.14302136
117	0x3ce2fb9c	0.027707867
118	0xbd96319a	-0.073336795
119	0x3e42f7ff	0.19039916
120	0xbe3c79b7	-0.18405806
121	0x3e1488d6	0.14505324
122	0xbcc4bbcd	-0.024015332
123	0xbe31ccda	-0.17363301
124	0xbe9793f9	-0.29605082
125	0x3e706f4a	0.23479953
126	0xbd816f00	-0.0632
127	0x3e082b6e	0.13297817
128	0x3e399a61	0.18125297
129	0xbdd58c6a	-0.104271725
130	0xbe4c2342	-0.19935325
131	0x3d9621e0	0.0733068
132	0x3db8b224	0.09018353
133	0xbd05b6ac	-0.032644913
134	0x3e225a80	0.15854836
135	0xbde2649f	-0.11054348
136	0xbd91c535	-0.071176924
137	0xbdead34b	-0.11466082
138	0xbd2bf362	-0.041980155
139	0x3dde1151	0.108431466
140	0x3e3fb6b7	0.18722044
141	0x3dedc6ca	0.11610182
142	0x3d5d9855	0.054100353
143	0xbcc59a6e	-0.02412149
144	0x3e26247d	0.16224857
145	0x3d800979	0.06251807
146	0xbdecd255	-0.11563555
147	0x3c5f9e05	0.013648515
148	0x3e1dc010	0.15405297
149	0x3dd7ba7c	0.10533616
150	0x3ddaa347	0.10675674
151	0xbe50210d	-0.20325108
152	0xbe1696fd	-0.14706035
153	0xbeb0b3b1	-0.34512094
154	0xbca6f365	-0.020379731
155	0xbe6984d9	-0.22804584
156	0x3d2d88d0	0.042366803
157	0x3e1fd2ae	0.15607712
158	0xbdb0e49b	-0.08637353
159	0x3ce14508	0.027498737
160	0x3d054306	0.03253462
161	0x3d1af505	0.037831325
162	0x3e259b3a	0.16172495
163	0x3db392c7	0.0876823
164	0x3d0861b3	0.0332963
165	0xbdce6074	-0.10076991
166	0x3ea9166a	0.33024913
167	0xbe33147f	-0.17488287
168	0x3e6d4fef	0.23175023
169	0xbd4bdb2e	-0.049769573
170	0xbe776850	-0.24160886
171	0xbe5b2712	-0.21401623
172	0x3df05d4b	0.11736544
173	0xbe4428cc	-0.19156188
174	0x3e34180e	0.17587301
175	0x3cfa44ea	0.030550439
176	0xbd93f491	-0.07224382
177	0x3d85305c	0.065033644
178	0x3e1800a1	0.1484399
179	0xbe63b51c	-0.22237056
180	0xbdfe8bf4	-0.12429038
181	0xbe44e39a	-0.19227448
182	0x3e1c0fdb	0.15240423
183	0xbc9f0a19	-0.019413995
184	0xbdcba3fc	-0.09943387
185	0xbddf8aaf	-0.10915124
186	0x3d55ff39	0.052245352
187	0x3df03c9b	0.117303096
188	0xbdf15d2b	-0.117853485
189	0x3e67cb75	0.22636206
190	0xbde6d1ca	-0.11270483
191	0xbe1fd190	-0.15607285
192	0x3deb824f	0.11499464
193	0x3e698384	0.22804075
194	0x3e9ef8b7	0.3104913
195	0xbe44c886	-0.19217119
196	0xbe5bb8a1	-0.21457149
197	0x3d123440	0.03569436
198	0xbe2a8204	-0.1665116
199	0xbd1606cd	-0.03662758
200	0x3df3f7ae	0.119124755
201	0x3df69c46	0.120415255
202	0xbe3c2465	-0.18373258
203	0xbe135104	-0.14386374
204	0xbe953638	-0.29142928
205	0x3d2a0671	0.04151005
206	0xbe0f3869	-0.13986363
207	0x3e10636c	0.14100426
208	0x3e1ac00e	0.15112326
209	0xbc307b60	-0.010771602
210	0xbbde325c	-0.0067809056
211	0xbe5dc054	-0.21655399
212	0x3e5f95c0	0.21834469
213	0x3dbeba48	0.09312874
214	0xbe45a5ec	-0.19301575
215	0xbe99ae7e	-0.3001594
216	0xbe6f3085	-0.23358352
217	0x3dc0a726	0.09406881
218	0xbdb753f9	-0.089515634
219	0x3e0a27dc	0.13491768
220	0xbba28fb1	-0.004960977
221	0x3d4aefc8	0.04954508
222	0xbd8f9438	-0.07010692
223	0x3dd829b3	0.105548285
224	0x3d22a33f	0.039706465
225	0x3e1bea22	0.15226033
226	0x3e591fb5	0.21203502
227	0x3e30a172	0.17249086
228	0x3ccee4b4	0.025255539
229	0xbd4846f7	-0.048895802
230	0xbe59ff50	-0.212888
231	0xbd23098d	-0.03980403
232	0xbdc218ac	-0.09477362
233	0xbd84445b	-0.0645835
234	0xbe9ce4d2	-0.30643326
235	0x3e7d1494	0.24714881
236	0x3e74fcdd	0.23924585
237	0x3da8909d	0.08230708
238	0xbd612cf3	-0.054974508
239	0x3eb44c4b	0.35214457
240	0x3e8c5baa	0.27413684
241	0x3e81a1ec	0.2531885
242	0xbdd6d910	-0.1049062
243	0x3e860531	0.26175836
244	0xbdc96aca	-0.098348215
245	0xbe06aecd	-0.13152619
246	0xbe340590	-0.17580247
247	0xbd2b9a82	-0.041895397
248	0x3d811e3c	0.06304595
249	0x3e311e76	0.17296776
250	0xbe8fb001	-0.28063968
251	0x3cd22640	0.025653005
252	0x3d1a7cf5	0.037716825
253	0xbe6076dc	-0.21920341
254	0x3de2ea82	0.11079885
255	0xbe31e1f9	-0.17371358

net.2.bias f4 [20]
0	0x3e340bea	0.1758267
1	0x3e27863a	0.16359797
2	0xbe3ea986	-0.18619356
3	0xbddc7635	-0.10764734
4	0x3e05c4ae	0.13063309
5	0xbcb2bb14	-0.021817721
6	0xbde69219	-0.11258335
7	0x3e19f0e0	0.15033293
8	0xbe066fcd	-0.13128586
9	0x3e21d2c2	0.15803054
10	0x3e2a4d87	0.16631137
11	0xbdacaa95	-0.084309734
12	0x3c35c71e	0.0110948365
13	0x3e14eb0d	0.1454279
14	0xbddc5264	-0.10757902
15	0xbbcf3794	-0.006323764
16	0xbd949937	-0.07255786
17	0x3e4145b7	0.1887425
18	0x3e1716c8	0.14754784
19	0xbe2e74be	-0.17036721

net.4.weight f4 [20, 20]
0	0xbb8e23b7	-0.0043377536
1	0x3da34876	0.07972805
2	0xbe4f6490	-0.20253205
3	0x3e095171	0.13409974
4	0xbe3fbbb1	-0.18723942
5	0x3e801923	0.25019178
6	0xbe20c286	-0.15699205
7	0x3d202811	0.03910071
8	0xbe75d594	-0.24007255
9	0x3e6c9a76	0.23105797
10	0x3e1687ae	0.14700195
11	0x3e59c1eb	0.2126538
12	0x3e3f1930	0.18661952
13	0x3dab6f81	0.08370877
14	0x3e6127ea	0.21987882
15	0xbec38ff0	-0.38195753
16	0xbe70261b	-0.23452036
17	0xbd1e891e	-0.038704984
18	0xbb8d3233	-0.0043089627
19	0xbdab9939	-0.08378834
20	0xbd8f93f3	-0.07010641
21	0x3e0e7b42	0.13914207
22	0x3d876501	0.06611062
23	0xbde45fb0	-0.111510634
24	0xbcd9d161	-0.026589097
25	0x3e8f2ce1	0.27963927
26	0x3e4c41c9	0.1994697
27	0x3da52eee	0.08065592
28	0xbe2b0da8	-0.16704428
29	0x3e26b16e	0.16278622
30	0xbda255d4	-0.07926527
31	0x3de10c2f	0.10988652
32	0xbbd9a01f	-0.0066414024
33	0xbe2be4af	-0.16786455
34	0x3e2a7c14	0.16648895
35	0xbeb1a531	-0.34696344
36	0xbe862f2a	-0.26207858
37	0xbcf2e9dc	-0.029652528
38	0xbddb7968	-0.10716516
39	0x3d4ccd1f	0.050000306
40	0xbd5db9d2	-0.05413229
41	0xb99beb61	-0.00029739275
42	0xbc9695be	-0.01838195
43	0xbe3c8a25	-0.18412073
44	0x3e336bd3	0.175216
45	0x3df6094f	0.12013494
46	0x3e3da85c	0.18521255
47	0xbe1d7d5c	-0.15379852
48	0xbe1129fc	-0.14176172
49	0x3e4aca97	0.19803844
50	0xbd939f61	-0.072081335
51	0xbd41de30	-0.047331035
52	0xbe862087	-0.2619669
53	0x3e412ac1	0.18863966
54	0xbd2c2647	-0.04202869
55	0x3e0a4ecc	0.13506621
56	0x3dabd739	0.0839066
57	0xbdbb92bc	-0.09158847
58	0xbe0a42ed	-0.13502093
59	0x3e793a2e	0.243386
60	0x3e921b5c	0.285365
61	0xbd3ecc52	-0.046581574
62	0xbe6ce4ec	-0.23134202
63	0x3d7788c4	0.060433164
64	0xbe0d058d	-0.13771649
65	0x3e08b884	0.13351637
66	0xbe1aace6	-0.15105018
67	0x3ccdb234	0.025109388
68	0xbdfda24c	-0.12384471
69	0xbd7bd023	-0.06147779
70	0xbcf19081	-0.02948785
71	0x3dad734d	0.084692575
72	0x3e816250	0.2527032
73	0xbe57a2fd	-0.21058269
74	0xbe48407f	-0.19555853
75	0xbdd70141	-0.10498286
76	0xbe6520fe	-0.22375867
77	0x3df1c840	0.11805773
78	0xbdea895d	-0.11451981
79	0x3c59e353	0.013298827
80	0x3e0f71d2	0.14008263
81	0x3e5f07e5	0.21780355
82	0xbe2a40e5	-0.16626318
83	0x3dbb6366	0.09149818
84	0x3df42833	0.1192173
85	0xbe21f1c6	-0.15814885
86	0xbe34367b	-0.17598908
87	0xbe24fc9b	-0.16111986
88	0x3cdeaf04	0.027183063
89	0xbe24c609	-0.1609117
90	0xbd9f6098	-0.07782096
91	0x3e0b0705	0.13576896
92	0xbdc60afe	-0.09670065
93	0x3dfaa647	0.12238746
94	0xbe03770b	-0.1283838
95	0x3e3e6f14	0.1859706
96	0x3e0c4f5c	0.13702148
97	0x3daa8f18	0.08328074
98	0xbdb9acda	-0.09066172
99	0x3c593c5c	0.01325902
100	0x3e883d92	0.26609474
101	0xbd9f9803	-0.07792666
102	0x3e61df8e	0.22057936
103	0xbe816b97	-0.25277397
104	0xbe5656f8	-0.20931613
105	0x3dc36812	0.09541334
106	0x3e81f0f4	0.25379145
107	0xbd28e0f9	-0.041230176
108	0xbd4ee9b5	-0.05051585
109	0x3dca24ae	0.09870277
110	0xbe35b0ae	-0.17743179
111	0xbe4f4fb0	-0.20245242
112	0xbd8e3072	-0.06942834
113	0xbe3aa480	-0.18226814
114	0xbdb2dfe6	-0.087341115
115	0xbeb459d7	-0.35224792
116	0xbe436a25	-0.1908346
117	0x3e222173	0.15833072
118	0xbe1c020e	-0.15235159
119	0x3c031a74	0.008001912
120	0x3ddcd694	0.10783115
121	0x3e45ac71	0.19304062
122	0xbe965052	-0.29358155
123	0x3e5f9f7f	0.21838187
124	0x3dab037e	0.083502755
125	0xbe240ee7	-0.1602131
126	0xbc838280	-0.016053438
127	0xbe00b25c	-0.12568039
128	0x3d173bc8	0.036922246
129	0x3da40bf3	0.08010092
130	0x3e11af36	0.14226994
131	0xbe9be60a	-0.30448943
132	0x3de4a452	0.11164154
133	0xbdf52928	-0.119707406
134	0x3d2c3f0f	0.042052325
135	0xbcbfdb3d	-0.02341997
136	0xbe3feb8e	-0.187422
137	0xbe98739f	-0.29775712
138	0x3ca5820a	0.020203609
139	0xbe075815	-0.13217194
140	0x3c8a560c	0.016886733
141	0x3e8f82fc	0.2802962
142	0xbe2dfcc2	-0.1699095
143	0xbe89d409	-0.26919582
144	0xbdb01d98	-0.085993946
145	0xbd8cf9ed	-0.06883607
146	0x3ddb54e4	0.10709551
147	0xbe91f736	-0.2850892
148	0x3d07ed1f	0.03318512
149	0xbd804993	-0.06264033
150	0x3dc3dd95	0.09563748
151	0x3e7996a1	0.24373867
152	0xbe429a8b	-0.19004266
153	0x3e786cf8	0.24260318
154	0x3d8c7105	0.06857494
155	0xbdb45bd0	-0.08806574
156	0xbe41200b	-0.1885988
157	0x3db943f9	0.09046168
158	0x3df34f76	0.1188039
159	0xbea9dccc	-0.33176267
160	0x3e505764	0.20345837
161	0x3d275140	0.04084897
162	0xbd704fda	-0.058669902
163	0x3da3722f	0.07980763
164	0x3e1ead31	0.15495755
165	0xbe8b985e	-0.27264684
166	0xbe38d2a8	-0.18049109
167	0xbd5a73c2	-0.05333305
168	0x3e14c908	0.14529812
169	0xbd9709a4	-0.07374886
170	0xbcd12439	-0.025529968
171	0xbd9281bc	-0.07153651
172	0xbe01753a	-0.12642375
173	0x3e6b9050	0.2300427
174	0x3d4da9ee	0.050210886
175	0x3de1686f	0.11006247
176	0x3d4fb27e	0.050707333
177	0xbdd15888	-0.10221964
178	0xbe3e0250	-0.1855557
179	0xbe025aab	-0.127299
180	0x3e0e599d	0.13901372
181	0x3d703626	0.05864539
182	0x3ddf5543	0.10904934
183	0x3aa8045b	0.0012818681
184	0x3d198706	0.037482284
185	0xbe047f47	-0.12939177
186	0x3d937705	0.072004355
187	0x3dc34926	0.09535436
188	0xbd558306	-0.052126907
189	0x3e35c08d	0.17749234
190	0x3c7ebc57	0.015547833
191	0x3d46edc4	0.048566595
192	0x3e7a8bac	0.24467343
193	0x3e2a46c4	0.16628557
194	0x3c1d0262	0.009583088
195	0xbdadbc33	-0.08483162
196	0xbe840cd6	-0.25791043
197	0xbe09a521	-0.13441898
198	0x3e6f5c97	0.23375164
199	0xbe1974ab	-0.14985912
200	0xbe068b22	-0.13139012
201	0xbe88a496	-0.2668807
202	0x3e454af3	0.19266872
203	0xbe5fd22b	-0.21857516
204	0xbe30ed42	-0.17278007
205	0xbc6764a9	-0.01412312
206	0xbdf89a3d	-0.121387936
207	0xbd630017	-0.055420008
208	0x3bda8704	0.006668927
209	0xbe986cf8	-0.29770637
210	0x3e617bb0	0.2201984
211	0xbe92b3fe	-0.28652948
212	0xbe2fef70	-0.17181182
213	0x3ea57ae5	0.32320324
214	0xbe343b50	-0.17600751
215	0xbe6b99b2	-0.23007849
216	0xbe5e32ac	-0.21699017
217	0xbe043931	-0.12912442
218	0xbe09a16e	-0.13440487
219	0x3dd6ef5d	0.10494874
220	0xbb99d3fb	-0.0046944595
221	0x3e02e2f2	0.12781885
222	0x3e0ec2cc	0.13941497
223	0x3e5ae84f	0.21377681
224	0x3dc06d38	0.09395832
225	0xbd7352b6	-0.05940505
226	0xbe0968af	-0.1341884
227	0x3d24bd94	0.04021986
228	0x3e5bf5ce	0.21480486
229	0xba2f556c	-0.0006688449
230	0xbea5f06e	-0.32409996
231	0xbd80478e	-0.06263648
232	0x3e65714f	0.22406505
233	0x3d4d5db5	0.050138194
234	0x3d5f5079	0.054520104
235	0xbc2cea3a	-0.010553891
236	0x3e71d9e1	0.2361827
237	0xbe01728c	-0.12641352
238	0x3d8de198	0.06927794
239	0xbb62f294	-0.003462945
240	0xbd823884	-0.06358436
241	0xbdb85a57	-0.09001606
242	0x3e0b90eb	0.136295
243	0xbe458726	-0.19289836
244	0x3d299ac0	0.041407347
245	0xbea347c6	-0.31890696
246	0x3e2c1df9	0.16808309
247	0xbdd07ec3	-0.10180428
248	0x3e17b8cf	0.14816593
249	0x3d78abb2	0.060710616
250	0x3e9862d1	0.2976289
251	0xbe6b082e	-0.22952339
252	0xbda62411	-0.08112348
253	0xbe76ca35	-0.24100573
254	0x3db079b0	0.0861696
255	0x3ea9cf32	0.3316589

net.4.bias f4 [20]
0	0x3d296ea7	0.041365292
1	0xbe5a2e55	-0.21306737
2	0x3e09f4b7	0.13472258
3	0xbd7bbc11	-0.06145865
4	0xbddf934d	-0.10916767
5	0xbd6a48bc	-0.05719827
6	0x3d0d1ff7	0.034454312
7	0x3db054c7	0.0860992
8	0xbd07f85a	-0.03319583
9	0xbc8763d1	-0.016527088
10	0xbdeab805	-0.1146088
11	0xbda9678c	-0.08271703
12	0xbdc045b9	-0.093882985
13	0x3d8c9e59	0.0686614
14	0x3d1aff1c	0.037840948
15	0xbe3d0b71	-0.18461396
16	0x3e15316b	0.14569633
17	0xbddb3a88	-0.10704523
18	0xbdaf2ccd	-0.08553467
19	0xbe60d80b	-0.21957414

net.6.weight f4 [20, 20]
0	0x3e4a60a3	0.19763426
1	0xbe4679fa	-0.19382468
2	0xbcf020ea	-0.02931257
3	0xbdafd7c5	-0.08586077
4	0x3db4f149	0.08835084
5	0x3e8505f4	0.25981104
6	0xbe11ed2a	-0.14250627
7	0x3bf8ba86	0.0075905947
8	0x3e25d4f1	0.16194512
9	0xbd1fb13c	-0.038987383
10	0x3e6b3159	0.22968043
11	0xbe2bf154	-0.16791278
12	0xbaff216b	-0.0019464915
13	0x3e49045e	0.19630572
14	0x3ba2f2e3	0.004972802
15	0x3da8f74f	0.08250295
16	0x3df17de8	0.11791593
17	0xbd83ba30	-0.06431997
18	0x3e7e9d9d	0.24864812
19	0x3dd0ff6d	0.102049686
20	0x3de09394	0.10965648
21	0xbe3b6c64	-0.18303066
22	0xbe66253f	-0.22475146
23	0xbc32ba86	-0.010908728
24	0xbd2af474	-0.041737035
25	0x3e384a08	0.1799699
26	0xbe98fed6	-0.29881924
27	0xbd550205	-0.05200388
28	0x3e0ee866	0.1395584
29	0xbc2f80b3	-0.010711837
30	0xbe073e46	-0.13207349
31	0x3e9a294d	0.30109635
32	0xbeaa8fd1	-0.33312848
33	0x3c67ab8f	0.014140024
34	0xbe5e5281	-0.2171116
35	0xbdbadb38	-0.09123844
36	0xbe62945a	-0.22126904
37	0x3da72358	0.08161038
38	0x3e36a5f2	0.1783674
39	0xbdc821e0	-0.09772086
40	0xbe6c0cb4	-0.23051721
41	0x3e4266ea	0.18984571
42	0xbe2cd030	-0.16876292
43	0x3de01668	0.10941774
44	0x3da54bc9	0.080710955
45	0xbe3ca443	-0.18422036
46	0x3cb3b77a	0.021938074
47	0x3e946cf4	0.28989375
48	0xbe117ca0	-0.14207697
49	0xbd945785	-0.072432555
50	0x3dddf2c5	0.1083732
51	0xbdbf82fb	-0.093511544
52	0x3da33dbe	0.07970761
53	0x3c0ccf61	0.008594365
54	0x3e21dc3f	0.15806673
55	0xbd6b3dfe	-0.057432167
56	0xbdef86a1	-0.116956
57	0x3cc009f0	0.023442239
58	0x3e0919d8	0.13388765
59	0xbd57a15d	-0.052644122
60	0x3e932556	0.28739423
61	0x3e1cd781	0.15316583
62	0xbe7a858c	-0.24465007
63	0x3e5ce1db	0.21570532
64	0xbe0c90cf	-0.13727115
65	0x3d1a4e2a	0.0376722
66	0x3cfcae3a	0.030844796
67	0xbdd3e0af	-0.10345589
68	0xbdd04fbd	-0.10171459
69	0x3d53daff	0.051722523
70	0xbd40c0c1	-0.047058824
71	0xbe385e8a	-0.18004814
72	0xbe349aad	-0.17637129
73	0xbe5e4778	-0.2170695
74	0xbdd1e6cf	-0.10249101
75	0xbe1e0dee	-0.15435001
76	0xbd965354	-0.07340112
77	0xbde034ae	-0.10947548
78	0xbb015580	-0.00197348
79	0xbe0a796e	-0.13522884
80	0x3e4c366b	0.19942634
81	0xbe133803	-0.14376836
82	0xbdcddb88	-0.10051638
83	0x3d00650c	0.031346366
84	0xbb69265f	-0.003557585
85	0x3e52e3e6	0.20594749
86	0x3d420a8e	0.047373347
87	0xbe0a5497	-0.13508831
88	0xbe33f8b3	-0.1757534
89	0xbe0490a3	-0.129458
90	0xbd93739a	-0.071997836
91	0xbc4b21a4	-0.012398157
92	0x3dc0b1f6	0.09408943
93	0xbcf06082	-0.029342894
94	0x3e3ed7aa	0.18636957
95	0xbe50e908	-0.20401394
96	0xbe05eeeb	-0.13079421
97	0xbd8a17b5	-0.06742803
98	0xbe927efe	-0.28612512
99	0xbe245302	-0.1604729
100	0xbb5fe5ad	-0.0034163997
101	0xbe275ffe	-0.16345212
102	0xbe98890d	-0.2979206
103	0xbe485ffd	-0.19567867
104	0xbd0eb63d	-0.034841765
105	0xbd129458	-0.035786003
106	0xbcf28b14	-0.029607333
107	0xbe2c0ff4	-0.1680296
108	0xbe2de747	-0.16982757
109	0x3e7fca8b	0.24979608
110	0x3ca49312	0.02008966
111	0xbe406ba5	-0.18791063
112	0x3e325b66	0.17417678
113	0xbe3e95f0	-0.18611884
114	0xbe5ec4c1	-0.21754743
115	0xbe59ae1f	-0.21257828
116	0x3d002a66	0.031290434
117	0xbd8346f3	-0.06410017
118	0xbd94ec3a	-0.07271619
119	0x3ba69edf	0.005084857
120	0x3e6ea000	0.23303223
121	0x3e334761	0.17507698
122	0xbd26166d	-0.04054873
123	0x3e02d22c	0.12775487
124	0xbd401831	-0.04689807
125	0x3e3e1787	0.18563662
126	0xbddf3db1	-0.109004386
127	0xbcc8a5fa	-0.024493206
128	0xbddca885	-0.1077433
129	0x3cf8b526	0.030359816
130	0xbe870cdd	-0.26377
131	0xbddaad67	-0.10677605
132	0xbe461316	-0.19343218
133	0x3d871be2	0.06597115
134	0xbd8de24a	-0.06927927
135	0xbdfffe25	-0.12499646
136	0x3e577443	0.21040444
137	0x3dbe075b	0.09278747
138	0xbdf7d8d3	-0.12101903
139	0xbc28648d	-0.010277879
140	0x3c8f8b97	0.017522616
141	0x3d3b763d	0.045767058
142	0xbde08b05	-0.10964016
143	0x3e43a771	0.19106843
144	0x3e3a0700	0.18166733
145	0xbe785ad2	-0.24253395
146	0xbc598338	-0.013275914
147	0x3e354247	0.17701064
148	0xbca08c5d	-0.01959818
149	0x3bd687e9	0.0065469635
150	0xbe2a4d0e	-0.16630957
151	0x3d40738a	0.046985187
152	0x3e1d808e	0.15381071
153	0xbea7b4a8	-0.32755017
154	0xbcf9f253	-0.030511057
155	0x3b3015a1	0.002686836
156	0xbda6fc8a	-0.08153637
157	0xbd8bd6ae	-0.06828056
158	0xbe7dd683	-0.24788861
159	0xbe38b1a1	-0.1803651
160	0x3e801cab	0.25021872
161	0xbd0e2125	-0.034699578
162	0xbe55a45a	-0.20863476
163	0x3e3d77b5	0.18502696
164	0x3e4f2a0c	0.20230883
165	0xbc737ff4	-0.014862049
166	0xbd893f94	-0.0670158
167	0x3e263923	0.16232733
168	0xba47892f	-0.00076116895
169	0x3d41183e	0.04714226
170	0xbd6e2f2d	-0.05815046
171	0xbd970923	-0.073747896
172	0xbe979d96	-0.29612416
173	0xbe0c8838	-0.13723838
174	0x3c14e63b	0.009088094
175	0xbd8dedc7	-0.06930118
176	0x3d3df890	0.046379626
177	0xbd95830f	-0.07300388
178	0xbe093aaf	-0.13401292
179	0xbcd71181	-0.026253464
180	0xbe2e9e8c	-0.17052668
181	0xbd5e93fb	-0.054340344
182	0x3e3037fe	0.1720886
183	0xbe0a0229	-0.13477387
184	0x3e24beab	0.16088359
185	0x3e4bfafd	0.19919963
186	0x3e25d189	0.16193213
187	0xbe1db40b	-0.15400712
188	0x3df59698	0.11991614
189	0xbcde3830	-0.027126402
190	0x3e13344b	0.14375417
191	0xbe303dca	-0.1721107
192	0x3e62fb94	0.22166282
193	0x3d95d3b0	0.07315767
194	0x3d9a6fdd	0.075408675
195	0xbdadb450	-0.084816575
196	0xbe35cbe1	-0.17753555
197	0xbd07fd9a	-0.033200838
198	0xbe129b60	-0.14317083
199	0xbd017672	-0.0316071
200	0xbba33bb7	-0.004981484
201	0xbe1826f5	-0.14858611
202	0x3dd5723e	0.104221806
203	0xbc64991f	-0.013952523
204	0x3bb04d34	0.005380297
205	0x3e2d8fbf	0.16949366
206	0x3e150348	0.14552033
207	0x3eb0eaae	0.34554046
208	0x3e2513df	0.16120861
209	0x3cd61759	0.02613418
210	0x3e009fde	0.12560984
211	0x3c849f34	0.016189195
212	0xbe8d2a82	-0.27571493
213	0x3e23f535	0.16011508
214	0x3e9889ab	0.29792532
215	0x3e29838b	0.16554086
216	0x3e43a322	0.19105199
217	0xbae85b6e	-0.0017727443
218	0x3dd4e6bb	0.10395571
219	0x3dbb0ca8	0.09133273
220	0xbeb0de1a	-0.3454445
221	0x3da38e79	0.07986159
222	0x3da0c79e	0.07850574
223	0x3d8053b3	0.06265964
224	0x3e90272e	0.28154892
225	0xbdd52a94	-0.10408512
226	0xbe0b26fc	-0.1358909
227	0x3e212bf5	0.15739425
228	0x3d7d2228	0.061800152
229	0xbe6d2fa2	-0.23162702
230	0x3e36ca1d	0.17850538
231	0x3e1ace56	0.15117773
232	0x3d6b4b36	0.057444774
233	0xbe314828	-0.17312682
234	0x3e08907e	0.1333637
235	0x3e28c79a	0.16482392
236	0x3d9d65ab	0.07685407
237	0xbda55a34	-0.080738455
238	0xbe1e3063	-0.15448146
239	0x3e315846	0.1731883
240	0x3d697080	0.056992054
241	0x3d80af97	0.06283491
242	0x3e3396a8	0.1753794
243	0xbd9a589c	-0.07536432
244	0xbc17cec8	-0.009265609
245	0x3d2f3dc5	0.042783517
246	0xbe1b1a5a	-0.15146771
247	0x3d9e352f	0.07724988
248	0xbe3b112f	-0.18268274
249	0xbe0ffb49	-0.14060701
250	0x3bdf788d	0.0068197907
251	0x3e873016	0.26403874
252	0x3dd72265	0.10504607
253	0xbdb9828f	-0.09058105
254	0x3da0e137	0.07855456
255	0xbd987e29	-0.07445938

net.6.bias f4 [20]
0	0xbe473eb0	-0.19457507
1	0xbd7c9a3c	-0.061670527
2	0xbe0528a6	-0.13003787
3	0x3cde26ff	0.027118204
4	0xbe16a628	-0.14711821
5	0x3db77943	0.08958676
6	0xbdeb54c9	-0.11490781
7	0x3e0d30c6	0.13788137
8	0xbd76c51b	-0.06024657
9	0x3cd603ab	0.026124796
10	0xbd9b166e	-0.075726375
11	0xbe6a6799	-0.22891082
12	0xbe625258	-0.22101724
13	0x3bd2333f	0.0064148004
14	0x3d8210c7	0.06350856
15	0x3db3b3ca	0.087745264
16	0x3dc5c271	0.096562274
17	0xbe1eafa0	-0.15496683
18	0xbd4fcdc1	-0.05073333
19	0xbdc34792	-0.09535135

net.8.weight f4 [6, 20]
0	0xbba66653	-0.005078116
1	0xbc2dcf24	-0.010608468
2	0xbd7d6567	-0.061864283
3	0xbe66cdb9	-0.22539414
4	0x3e05c88b	0.13064782
5	0xbe1fedeb	-0.15618102
6	0xbe562595	-0.20912774
7	0xbda7908b	-0.08181866
8	0xbdd4cef5	-0.103910364
9	0x3e0e7e07	0.13915263
10	0x3d2fbe43	0.042906057
11	0x3e85064c	0.25981367
12	0xbe3cc74d	-0.18435402
13	0xbe08fe80	-0.13378334
14	0x3d1abc47	0.03777721
15	0x3da966cc	0.0827156
16	0x3e426400	0.1898346
17	0xbdfffa5b	-0.124989234
18	0x3dbafeae	0.091306075
19	0xbdf3ca1c	-0.11903784
20	0xbe030589	-0.1279508
21	0xbc2beda5	-0.010493671
22	0x3dccaeb7	0.09994262
23	0xbe0b5a77	-0.13608728
24	0x3992d9c1	0.0002800953
25	0x3e30907f	0.17242621
26	0x3da94ea9	0.08266956
27	0x3e7f9641	0.24959661
28	0x3ca5da06	0.020245563
29	0xbe3acab5	-0.18241389
30	0x3e2363ee	0.15956089
31	0x3d3e524d	0.046465207
32	0xbe4fe0e6	-0.20300636
33	0xbd5cf7aa	-0.05394713
34	0x3e319db6	0.17345318
35	0xbe137053	-0.14398317
36	0xbc4101e2	-0.011780234
37	0xbdcef3df	-0.101051085
38	0xbd720e0b	-0.059095424
39	0x3daa5938	0.083177984
40	0x3e2e8b89	0.17045416
41	0xbebc0804	-0.36724865
42	0xbe2ecd3f	-0.17070483
43	0x3d85dcad	0.06536231
44	0xbc496b95	-0.012293716
45	0x3e280d99	0.16411437
46	0xbdf98a29	-0.12184555
47	0x3be741ff	0.007057428
48	0xbe3366af	-0.1751964
49	0x3de942a8	0.11389667
50	0xbdb9299a	-0.09041138
51	0xbd968eac	-0.07351431
52	0xbe6d97c8	-0.23202431
53	0x3d73d11d	0.059525598
54	0x3e2a21fc	0.16614527
55	0x3e1e4508	0.15456021
56	0x3d3e78ec	0.04650204
57	0xbc233a64	-0.009962652
58	0x3e71634c	0.23573035
59	0x3de2fba1	0.11083151
60	0x3e27d744	0.16390711
61	0x3e0b2fee	0.13592502
62	0x3dfc6133	0.12323227
63	0x3c87b10b	0.016563913
64	0xbcfd72aa	-0.030938465
65	0xbe3342be	-0.17505929
66	0x3dd53ae9	0.10411627
67	0xbdf0c13b	-0.11755606
68	0x3c469ad3	0.012121874
69	0xbe499570	-0.19685912
70	0xbdb76e39	-0.0895657
71	0x3d2a7805	0.041618366
72	0x3e080048	0.13281357
73	0x3e103ea7	0.140864
74	0xbd5de655	-0.05417474
75	0x3dd76a0b	0.10518273
76	0x3e1b06e5	0.15139349
77	0xbe102f0d	-0.14080448
78	0x3e7c654b	0.24648015
79	0x3ea633a1	0.32461265
80	0xbbd08ec3	-0.006364675
81	0xbdd112c4	-0.102086574
82	0x3e36eaca	0.17863002
83	0xbe90680b	-0.28204378
84	0xbdc67abb	-0.09691378
85	0xbc9a6285	-0.018845806
86	0xbd9bb793	-0.076033734
87	0xbe5280fe	-0.20557019
88	0xbe51e355	-0.20496877
89	0x3e95cd24	0.29258072
90	0xbdceb1e6	-0.10092525
91	0x3e7f2d8b	0.24919717
92	0x3e0d58ab	0.13803355
93	0xbe2c5e88	-0.16832936
94	0xbcecd1c0	-0.02890861
95	0xbe9ac0c9	-0.30225208
96	0xbe41b94c	-0.18918341
97	0x3d536166	0.05160656
98	0x3d591c34	0.053005412
99	0x3e861a3c	0.2619189
100	0xbe2fe5af	-0.17177461
101	0x3e2ac40b	0.16676347
102	0xbe19a138	-0.15002906
103	0x3e662009	0.22473158
104	0x3dd5c708	0.10438353
105	0x3e011602	0.12606052
106	0x3dc087c9	0.09400899
107	0xbc6d3f58	-0.014480434
108	0x3d8d002a	0.06884797
109	0xbdf4cd47	-0.11953216
110	0xbe730766	-0.23733291
111	0xbe23ef86	-0.1600934
112	0xbe25350d	-0.16133519
113	0xbe5171fa	-0.20453635
114	0xbd3e2e28	-0.046430737
115	0x3dece1e6	0.11566524
116	0x3e63fd49	0.2226459
117	0xbd7a7729	-0.061148796
118	0xbd4544ea	-0.048161425
119	0x3e388239	0.18018426

net.8.bias f4 [6]
0	0x3d2f5215	0.04280289
1	0xbd480a21	-0.048837785
2	0xbdcd5d2c	-0.10027537
3	0xbd26af58	-0.040694565
4	0x3df2d411	0.11856855
5	0xbdec986d	-0.115525104
